…
e":["# single_fashin_mnist_model() 모델을 할당 받고 서머리를 출력하는 코드를 작성하세요.\r\n","model = single_fashin_mnist_model()\r\n","model.summary()"],"execution_count":213,"outputs":[{"output_type":"stream","text":["Model: \"model_2\"\n","_________________________________________________________________\n","Layer (type)                 Output Shape              Param #   \n","=================================================================\n","input_4 (InputLayer)         [(None, 56, 56, 1)]       0         \n","_________________________________________________________________\n","conv2d_7 (Conv2D)            (None, 56, 56, 16)        80        \n","_________________________________________________________________\n","max_pooling2d_6 (MaxPooling2 (None, 28, 28, 16)        0         \n","_________________________________________________________________\n","dropout_4 (Dropout)          (None, 28, 28, 16)        0         \n","_________________________________________________________________\n","conv2d_8 (Conv2D)            (None, 28, 28, 32)        2080      \n","_________________________________________________________________\n","max_pooling2d_7 (MaxPooling2 (None, 14, 14, 32)        0         \n","_________________________________________________________________\n","dropout_5 (Dropout)          (None, 14, 14, 32)        0         \n","_________________________________________________________________\n","conv2d_9 (Conv2D)            (None, 14, 14, 64)        8256      \n","_________________________________________________________________\n","max_pooling2d_8 (MaxPooling2 (None, 7, 7, 64)          0         \n","_________________________________________________________________\n","flatten_2 (Flatten)          (None, 3136)              0         \n","_________________________________________________________________\n","dense_2 (Dense)              (None, 10)                31370     \n","=================================================================\n","Total params: 41,786\n","Trainable params: 41,786\n","Non-trainable params: 0\n","_________________________________________________________________\n"],"name":"stdout"}]},{"cell_type":"code","metadata":{"colab":{"base_uri":"https://localhost:8080/"},"id":"afzPZg55P-HE","executionInfo":{"status":"ok","timestamp":1612596
…
14431"}},"outputId":"ba42fa23-6c86-4a02-9f8a-ffe745e381ef"},"source":["model = single_fashin_mnist_model2()\r\n","model.summary()"],"execution_count":215,"outputs":[{"output_type":"stream","text":["Model: \"model_3\"\n","_________________________________________________________________\n","Layer (type)                 Output Shape              Param #   \n","=================================================================\n","input_5 (InputLayer)         [(None, 56, 56, 1)]       0         \n","_________________________________________________________________\n","conv2d_10 (Conv2D)           (None, 56, 56, 16)        80        \n","_________________________________________________________________\n","max_pooling2d_9 (MaxPooling2 (None, 28, 28, 16)        0         \n","_________________________________________________________________\n","dropout_6 (Dropout)          (None, 28, 28, 16)        0         \n","_________________________________________________________________\n","conv2d_11 (Conv2D)           (None, 28, 28, 32)        2080      \n","_________________________________________________________________\n","max_pooling2d_10 (MaxPooling (None, 14, 14, 32)        0         \n","_________________________________________________________________\n","dropout_7 (Dropout)          (None, 14, 14, 32)        0         \n","_________________________________________________________________\n","conv2d_12 (Conv2D)           (None, 14, 14, 64)        8256      \n","_________________________________________________________________\n","max_pooling2d_11 (MaxPooling (None, 7, 7, 64)          0         \n","_________________________________________________________________\n","global_average_pooling2d (Gl (None, 64)                0         \n","_________________________________________________________________\n","dense_3 (Dense)              (None, 10)                650       \n","=================================================================\n","Total params: 11,066\n","Trainable params: 11,066\n","Non-trainable params: 0\n","_________________________________________________________________\n"],"name":"stdout"}]},{"cell_type":"markdown","metadata":{"id":"PkOrDR1yam4a"},"source":["### 문제 24. 만든 모델에 로스와 옵티마이저, 메트릭을 설정하세요."]},{"cell_type":"code","metadata":{"id
…
