…
678997333956014431"}},"outputId":"989567e2-cfe1-4387-9974-ce514c80070c"},"source":["# 모델 요약 정보를 출력해보세요.\r\n","model.summary()"],"execution_count":59,"outputs":[{"output_type":"stream","text":["Model: \"functional_1\"\n","_________________________________________________________________\n","Layer (type)                 Output Shape              Param #   \n","=================================================================\n","input_2 (InputLayer)         [(None, 28, 28, 3)]       0         \n","_________________________________________________________________\n","conv2d_2 (Conv2D)            (None, 14, 14, 32)        896       \n","_________________________________________________________________\n","conv2d_3 (Conv2D)            (None, 7, 7, 64)          18496     \n","_________________________________________________________________\n","flatten_1 (Flatten)          (None, 3136)              0         \n","_________________________________________________________________\n","dense_2 (Dense)              (None, 10)                31370     \n","_________________________________________________________________\n","dense_3 (Dense)              (None, 3136)              34496     \n","_________________________________________________________________\n","reshape (Reshape)            (None, 7, 7, 64)          0         \n","_________________________________________________________________\n","conv2d_transpose (Conv2DTran (None, 14, 14, 64)        36928     \n","_________________________________________________________________\n","conv2d_transpose_1 (Conv2DTr (None, 28, 28, 32)        18464     \n","_________________________________________________________________\n","conv2d_transpose_2 (Conv2DTr (None, 28, 28, 3)         867       \n","=================================================================\n","Total params: 141,517\n","Trainable params: 141,517\n","Non-trainable params: 0\n","_________________________________________________________________\n"],"name":"stdout"}]},{"cell_type":"markdown","metadata":{"id":"PkOrDR1yam4a"},"source":["### 문제 28. 만든 모델에 로스와 옵티마이저, 메트릭을 설정하세요."]},{"cell_type":"code","metadata":{"
…
