…
"output_type":"stream","text":["Model: \"model\"\n","__________________________________________________________________________________________________\n","Layer (type)                    Output Shape         Param #     Connected to                     \n","==================================================================================================\n","input_2 (InputLayer)            [(None, 50, 37, 3)]  0                                            \n","__________________________________________________________________________________________________\n","conv2d (Conv2D)                 (None, 50, 37, 16)   448         input_2[0][0]                    \n","__________________________________________________________________________________________________\n","batch_normalization (BatchNorma (None, 50, 37, 16)   64          conv2d[0][0]                     \n","__________________________________________________________________________________________________\n","activation (Activation)         (None, 50, 37, 16)   0           batch_normalization[0][0]        \n","__________________________________________________________________________________________________\n","conv2d_1 (Conv2D)               (None, 50, 37, 16)   2320        activation[0][0]                 \n","__________________________________________________________________________________________________\n","batch_normalization_1 (BatchNor (None, 50, 37, 16)   64          conv2d_1[0][0]                   \n","__________________________________________________________________________________________________\n","activation_1 (Activation)       (None, 50, 37, 16)   0           batch_normalization_1[0][0]      \n","__________________________________________________________________________________________________\n","max_pooling2d (MaxPooling2D)    (None, 25, 18, 16)   0           activation_1[0][0]               \n","__________________________________________________________________________________________________\n","dropout (Dropout)               (None, 25, 18, 16)   0           max_pooling2d[0][0]              \n","__________________________________________________________________________________________________\n","conv2d_2 (Conv2D)               (None, 25, 18, 32)   4640        dropout[0][0]                    \n","__________________________________________________________________________________________________\n","batch_normalization_2 (BatchNor (None, 25, 18, 32)   128         conv2d_2[0][0]                   \n","__________________________________________________________________________________________________\n","activation_2 (Activation)       (None, 25, 18, 32)   0           batch_normalization_2[0][0]      \n","__________________________________________________________________________________________________\n","conv2d_3 (Conv2D)               (None, 25, 18, 32)   9248        activation_2[0][0]               \n","__________________________________________________________________________________________________\n","batch_normalization_3 (BatchNor (None, 25, 18, 32)   128         conv2d_3[0][0]                   \n","__________________________________________________________________________________________________\n","activation_3 (Activation)       (None, 25, 18, 32)   0           batch_normalization_3[0][0]      \n","__________________________________________________________________________________________________\n","max_pooling2d_1 (MaxPooling2D)  (None, 12, 9, 32)    0           activation_3[0][0]               \n","__________________________________________________________________________________________________\n","dropout_1 (Dropout)             (None, 12, 9, 32)    0           max_pooling2d_1[0][0]            \n","__________________________________________________________________________________________________\n","conv2d_4 (Conv2D)               (None, 12, 9, 64)    18496       dropout_1[0][0]                  \n","__________________________________________________________________________________________________\n","batch_normalization_4 (BatchNor (None, 12, 9, 64)    256         conv2d_4[0][0]                   \n","__________________________________________________________________________________________________\n","activation_4 (Activation)       (None, 12, 9, 64)    0           batch_normalization_4[0][0]      \n","__________________________________________________________________________________________________\n","conv2d_5 (Conv2D)               (None, 12, 9, 64)    36928       activation_4[0][0]               \n","__________________________________________________________________________________________________\n","batch_normalization_5 (BatchNor (None, 12, 9, 64)    256         conv2d_5[0][0]                   \n","__________________________________________________________________________________________________\n","activation_5 (Activation)       (None, 12, 9, 64)    0           batch_normalization_5[0][0]      \n","__________________________________________________________________________________________________\n","max_pooling2d_2 (MaxPooling2D)  (None, 6, 4, 64)     0           activation_5[0][0]               \n","__________________________________________________________________________________________________\n","dropout_2 (Dropout)             (None, 6, 4, 64)     0           max_pooling2d_2[0][0]            \n","__________________________________________________________________________________________________\n","conv2d_6 (Conv2D)               (None, 6, 4, 128)    73856       dropout_2[0][0]                  \n","__________________________________________________________________________________________________\n","batch_normalization_6 (BatchNor (None, 6, 4, 128)    512         conv2d_6[0][0]                   \n","__________________________________________________________________________________________________\n","activation_6 (Activation)       (None, 6, 4, 128)    0           batch_normalization_6[0][0]      \n","__________________________________________________________________________________________________\n","conv2d_7 (Conv2D)               (None, 6, 4, 128)    147584      activation_6[0][0]               \n","__________________________________________________________________________________________________\n","batch_normalization_7 (BatchNor (None, 6, 4, 128)    512         conv2d_7[0][0]                   \n","__________________________________________________________________________________________________\n","activation_7 (Activation)       (None, 6, 4, 128)    0           batch_normalization_7[0][0]      \n","__________________________________________________________________________________________________\n","max_pooling2d_3 (MaxPooling2D)  (None, 3, 2, 128)    0           activation_7[0][0]               \n","__________________________________________________________________________________________________\n","dropout_3 (Dropout)             (None, 3, 2, 128)    0           max_pooling2d_3[0][0]            \n","__________________________________________________________________________________________________\n","conv2d_8 (Conv2D)               (None, 3, 2, 256)    295168      dropout_3[0][0]                  \n","__________________________________________________________________________________________________\n","batch_normalization_8 (BatchNor (None, 3, 2, 256)    1024        conv2d_8[0][0]                   \n","__________________________________________________________________________________________________\n","activation_8 (Activation)       (None, 3, 2, 256)    0           batch_normalization_8[0][0]      \n","__________________________________________________________________________________________________\n","conv2d_9 (Conv2D)               (None, 3, 2, 256)    590080      activation_8[0][0]               \n","__________________________________________________________________________________________________\n","batch_normalization_9 (BatchNor (None, 3, 2, 256)    1024        conv2d_9[0][0]                   \n","__________________________________________________________________________________________________\n","activation_9 (Activation)       (None, 3, 2, 256)    0           batch_normalization_9[0][0]      \n","__________________________________________________________________________________________________\n","conv2d_transpose (Conv2DTranspo (None, 6, 4, 128)    131200      activation_9[0][0]               \n","__________________________________________________________________________________________________\n","concatenate (Concatenate)       (None, 6, 4, 256)    0           conv2d_transpose[0][0]           \n","                                                                 activation_7[0][0]               \n","__________________________________________________________________________________________________\n","dropout_4 (Dropout)             (None, 6, 4, 256)    0           concatenate[0][0]                \n","__________________________________________________________________________________________________\n","conv2d_10 (Conv2D)              (None, 6, 4, 128)    295040      dropout_4[0][0]                  \n","__________________________________________________________________________________________________\n","batch_normalization_10 (BatchNo (None, 6, 4, 128)    512         conv2d_10[0][0]                  \n","__________________________________________________________________________________________________\n","activation_10 (Activation)      (None, 6, 4, 128)    0           batch_normalization_10[0][0]     \n","__________________________________________________________________________________________________\n","conv2d_11 (Conv2D)              (None, 6, 4, 128)    147584      activation_10[0][0]              \n","__________________________________________________________________________________________________\n","batch_normalization_11 (BatchNo (None, 6, 4, 128)    512         conv2d_11[0][0]                  \n","__________________________________________________________________________________________________\n","activation_11 (Activation)      (None, 6, 4, 128)    0           batch_normalization_11[0][0]     \n","__________________________________________________________________________________________________\n","conv2d_transpose_1 (Conv2DTrans (None, 12, 9, 64)    32832       activation_11[0][0]              \n","__________________________________________________________________________________________________\n","concatenate_1 (Concatenate)     (None, 12, 9, 128)   0           conv2d_transpose_1[0][0]         \n","                                                                 activation_5[0][0]               \n","__________________________________________________________________________________________________\n","dropout_5 (Dropout)             (None, 12, 9, 128)   0           concatenate_1[0][0]              \n","__________________________________________________________________________________________________\n","conv2d_12 (Conv2D)              (None, 12, 9, 64)    73792       dropout_5[0][0]                  \n","__________________________________________________________________________________________________\n","batch_normalization_12 (BatchNo (None, 12, 9, 64)    256         conv2d_12[0][0]                  \n","__________________________________________________________________________________________________\n","activation_12 (Activation)      (None, 12, 9, 64)    0           batch_normalization_12[0][0]     \n","__________________________________________________________________________________________________\n","conv2d_13 (Conv2D)              (None, 12, 9, 64)    36928       activation_12[0][0]              \n","__________________________________________________________________________________________________\n","batch_normalization_13 (BatchNo (None, 12, 9, 64)    256         conv2d_13[0][0]                  \n","__________________________________________________________________________________________________\n","activation_13 (Activation)      (None, 12, 9, 64)    0           batch_normalization_13[0][0]     \n","__________________________________________________________________________________________________\n","conv2d_transpose_2 (Conv2DTrans (None, 25, 18, 32)   8224        activation_13[0][0]              \n","__________________________________________________________________________________________________\n","concatenate_2 (Concatenate)     (None, 25, 18, 64)   0           conv2d_transpose_2[0][0]         \n","                                                                 activation_3[0][0]               \n","__________________________________________________________________________________________________\n","dropout_6 (Dropout)             (None, 25, 18, 64)   0           concatenate_2[0][0]              \n","__________________________________________________________________________________________________\n","conv2d_14 (Conv2D)              (None, 25, 18, 32)   18464       dropout_6[0][0]                  \n","__________________________________________________________________________________________________\n","batch_normalization_14 (BatchNo (None, 25, 18, 32)   128         conv2d_14[0][0]                  \n","__________________________________________________________________________________________________\n","activation_14 (Activation)      (None, 25, 18, 32)   0           batch_normalization_14[0][0]     \n","__________________________________________________________________________________________________\n","conv2d_15 (Conv2D)              (None, 25, 18, 32)   9248        activation_14[0][0]              \n","__________________________________________________________________________________________________\n","batch_normalization_15 (BatchNo (None, 25, 18, 32)   128         conv2d_15[0][0]                  \n","__________________________________________________________________________________________________\n","activation_15 (Activation)      (None, 25, 18, 32)   0           batch_normalization_15[0][0]     \n","__________________________________________________________________________________________________\n","conv2d_transpose_3 (Conv2DTrans (None, 50, 37, 16)   2064        activation_15[0][0]              \n","__________________________________________________________________________________________________\n","concatenate_3 (Concatenate)     (None, 50, 37, 32)   0           conv2d_transpose_3[0][0]         \n","                                                                 activation_1[0][0]               \n","__________________________________________________________________________________________________\n","dropout_7 (Dropout)             (None, 50, 37, 32)   0           concatenate_3[0][0]              \n","__________________________________________________________________________________________________\n","conv2d_16 (Conv2D)              (None, 50, 37, 16)   4624        dropout_7[0][0]                  \n","__________________________________________________________________________________________________\n","batch_normalization_16 (BatchNo (None, 50, 37, 16)   64          conv2d_16[0][0]                  \n","__________________________________________________________________________________________________\n","activation_16 (Activation)      (None, 50, 37, 16)   0           batch_normalization_16[0][0]     \n","__________________________________________________________________________________________________\n","conv2d_17 (Conv2D)              (None, 50, 37, 16)   2320        activation_16[0][0]              \n","__________________________________________________________________________________________________\n","batch_normalization_17 (BatchNo (None, 50, 37, 16)   64          conv2d_17[0][0]                  \n","__________________________________________________________________________________________________\n","activation_17 (Activation)      (None, 50, 37, 16)   0           batch_normalization_17[0][0]     \n","__________________________________________________________________________________________________\n","conv2d_transpose_4 (Conv2DTrans (None, 100, 75, 16)  1040        activation_17[0][0]              \n","__________________________________________________________________________________________________\n","conv2d_18 (Conv2D)              (None, 100, 75, 3)   51          conv2d_transpose_4[0][0]         \n","==================================================================================================\n","Total params: 1,948,067\n","Trainable params: 1,945,123\n","Non-trainable params: 2,944\n","__________________________________________________________________________________________________\n"],"name":"stdout"}]},{"cell_type":"markdown","metadata":
…
utput_type":"stream","text":["Model: \"model_1\"\n","__________________________________________________________________________________________________\n","Layer (type)                    Output Shape         Param #     Connected to                     \n","==================================================================================================\n","input_4 (InputLayer)            [(None, 100, 75, 3)] 0                                            \n","__________________________________________________________________________________________________\n","conv2d_24 (Conv2D)              (None, 100, 75, 64)  15616       input_4[0][0]                    \n","__________________________________________________________________________________________________\n","conv2d_25 (Conv2D)              (None, 100, 75, 32)  2080        conv2d_24[0][0]                  \n","__________________________________________________________________________________________________\n","conv2d_26 (Conv2D)              (None, 100, 75, 32)  18464       conv2d_24[0][0]                  \n","__________________________________________________________________________________________________\n","conv2d_27 (Conv2D)              (None, 100, 75, 32)  51232       conv2d_24[0][0]                  \n","__________________________________________________________________________________________________\n","average_1 (Average)             (None, 100, 75, 32)  0           conv2d_25[0][0]                  \n","                                                                 conv2d_26[0][0]                  \n","                                                                 conv2d_27[0][0]                  \n","__________________________________________________________________________________________________\n","conv2d_28 (Conv2D)              (None, 100, 75, 3)   2403        average_1[0][0]                  \n","==================================================================================================\n","Total params: 89,795\n","Trainable params: 89,795\n","Non-trainable params: 0\n","__________________________________________________________________________________________________\n"],"name":"stdout"}]},{"cell_type":"code","metadata":{"colab":{"base_
…
